data.pth (torch, 5279 bytes, 6 tensors)

l1.weight f4 [8, 54]
00000000: 21df 743e b515 79bd 85ff 3e3e 2023 c63e
00000010: 7444 df3e a384 d8be 3bb3 e53c bea9 d0bc
00000020: 04f0 9bbe d5e7 83bd a5d8 183f ed22 fdbd
00000030: cdbb 7b3c 0424 3cbe 4370 77be df38 2d3e
00000040: c00d 283f 0bf4 fcbe 4947 6d3e 27cd 093f
00000050: 059a 373e b3ea 1a3f 83b2 4b3f 9fd1 c33e
00000060: cbe4 f03c 1e39 043f 9501 033e 37fc 84be
00000070: 954d 8cbd 5c3a 89be e777 edbd f440 a6be
00000080: ab61 bd3e 4e7f d5bc 897e 3ebe b93d 6a3e
00000090: b28d 36be a4ec 2abe 18e2 67bc c467 16bb
000000a0: fdb8 5cbe 1cb2 aa3e 25d8 18be 5d63 38bd
000000b0: d1a2 95be 3de2 dbbd cca5 6d3d e9a0 233e
000000c0: 7177 bd3e 2edc 193e 11d3 0c3e 39eb a53e
000000d0: 4c20 eb3d 060c 87ba bbeb 6fbe 06c3 033f
000000e0: 07c4 ed3e 2129 a83e cbd5 163f 9caf 223f
000000f0: c89c dc3e 34ff d83e f465 dd3e 9a21 df3e
00000100: a7b3 073f c773 33be b35a 1d3f 7d27 fabd
00000110: f7c4 b33e a295 9bbe e97a ec3e f37e 2f3f
00000120: 2a69 ebbd f8d3 3a3f 8d61 4dbe 6a05 2d3f
00000130: 73d3 2e3f 1ad9 373e a06e e13e d3f1 c83e
00000140: 0fde 3f3d f9f2 f93e e34a e43d 31f8 bc3e
00000150: a19a a63e 14c4 b0bd 3e95 52be 5c5e 2f3f
00000160: 33c7 343f d73f a2be 4da0 883d cea8 1e3f
00000170: 4cf5 053f 20cb d13e b2f8 ac3e d2b1 a5be
00000180: 61b6 5abe cfde c43e d496 ae3e cef8 323f
00000190: f2cf 47bf 6157 43be 5718 a83e e679 85be
000001a0: f930 a1be fd7e 0cbe baae 163f 1c38 0e3f
000001b0: b8a3 8cbe 919a 0f3f 0895 91be e2c0 ecbd
000001c0: e2a9 cbbe a2e2 493f 26dc 55be 66b0 eebe
000001d0: 5e37 973c 6391 78be 1dfa e4bd efb1 e63e
000001e0: 0f77 473e 5aa7 9a3e a3b3 aa3e 294b 8c3e
000001f0: 41f5 8bbe 5021 323f e965 8f3e 2502 c6be
00000200: 1af5 c639 44be c5be 3b28 c3be b5f9 b43d
00000210: 0750 4e3e 3d06 7abe 437f fc3e 6550 363f
00000220: db48 a23e aa24 e03e b309 f23e d2d3 003f
00000230: e0d3 85be 3797 6bbe 0135 163f cbc6 593e
00000240: 5dbb cd3e 0808 c0bb c50a 51be 3115 85bd
00000250: a224 953e 8b07 b03e 095f a33e 8ef5 e13e
00000260: ee03 403e 41fb 1c3f d7d1 d2be 20de e6bd
00000270: 7613 073d 5885 283f d1df 613e 5c41 c63e
00000280: 0f81 e3bd 3b53 ecbc c681 c43e 3854 6f3e
00000290: 7d2a 69be 19ed 44be 60ee dabe 8da7 b5be
000002a0: 8de3 25bd 559c 85be 2c4a d63c 2a2b d6be
000002b0: ba1c d9bd 68e8 1d3f 36c3 343e 992b 433f
000002c0: 7500 0b3e cf23 b23e 89c5 7ebe a2be b5be
000002d0: 8587 a43e e98f b5be 9852 c13e 78a8 b5be
000002e0: 329f b5be cc0c a73e 85cb cc3e 0577 30be
000002f0: 7eb0 113f 78cf 073e 3d06 da3e e590 ab3e
00000300: f9b2 febd e259 023f a253 3d3e 48d0 72be
00000310: b879 273e b311 bd3e 2d44 ec3e a9e2 56bc
00000320: 4148 74be 5a33 41be 8f20 55be e4ef a83e
00000330: 532c 063f 8b33 c33d fbb9 d33e 5f01 ae3d
00000340: d67d 373f 191e b63e 4e13 223c 3f38 313f
00000350: 7e04 fe3e 160c 013f 6ded 92be ab20 babc
00000360: 9fe2 1a3e 579b f73e f630 06be 77f7 a8be
00000370: 8e7d 41be 42e4 da3e c88c 8b3d af3b 9cbe
00000380: cbc6 4c3e 4cc3 96be cd00 6fbe 05f2 883e
00000390: c292 203f 8a58 4ebd d2fc 093f 587c 113e
000003a0: cdba 69be 684a 0a3f 7403 ea3e 58d8 e7be
000003b0: 49cd 963e 0cf6 e3be 8609 ecbe 5b11 0fbf
000003c0: 7994 a93e 4ee7 a5be df4e 2a3f 7268 043f
000003d0: 73a4 9a3e 31e4 cc3e 87cf 6f3e 754c febd
000003e0: 606d b8bd 3bc7 14be 8600 223f 4db2 673e
000003f0: edab e93e 4ac8 993e e85c 263e afb0 953c
0.23913242 -0.060811717 0.1865216 0.38698673 0.43606913 -0.42288694 0.028039565 -0.025471564
-0.30456555 -0.06440703 0.59705573 -0.12360177 0.015364599 -0.18373114 -0.24163918 0.16916226
0.6564598 -0.4940494 0.23171724 0.5382866 0.17929848 0.6051437 0.7956926 0.38245866
0.029405972 0.51649654 0.12793572 -0.25973675 -0.06850735 -0.26802337 -0.11595135 -0.3247143
0.36988577 -0.02606168 -0.18602957 0.22875108 -0.1782749 -0.16691834 -0.014153026 -0.0022950033
-0.21554942 0.33339012 -0.14926203 -0.045016635 -0.29225782 -0.10736511 0.058019444 0.15979351
0.3700519 0.15025398 0.1375239 0.32406023 0.114807695 -0.0010303266 -0.23429768 0.5146946
0.4643862 0.3284388 0.5891997 0.6354921 0.43088365 0.42382205 0.43241847 0.43580323
0.530085 -0.17524634 0.6146652 -0.12214563 0.3511121 -0.30387598 0.46187523 0.68553084
-0.11494668 0.7297969 -0.20056744 0.67586386 0.68291396 0.17953911 0.44029713 0.39246997
0.04684263 0.48818186 0.11147096 0.36908105 0.32539847 -0.08631149 -0.20564744 0.68503356
0.70616454 -0.3168933 0.066712 0.61976326 0.5232742 0.40975285 0.3378349 -0.3236223
-0.21358635 0.3845124 0.34099448 0.69910896 -0.78051674 -0.19076301 0.3283107 -0.26069564
-0.31482676 -0.13720317 0.5886036 0.55554366 -0.27468657 0.56095225 -0.28434014 -0.11560227
-0.39778048 0.7886144 -0.20884761 -0.46618956 0.018459018 -0.2427421 -0.11180518 0.45057628
0.19479011 0.30205804 0.33340177 0.27401093 -0.2733555 0.6958208 0.2800744 -0.3867351
0.00037948118 -0.38621724 -0.3811663 0.0883669 0.20147716 -0.24416442 0.49315843 0.7121642
0.3169621 0.43777972 0.47273025 0.5032321 -0.2613821 -0.23006903 0.5867463 0.2126724
0.4018201 -0.0058603324 -0.20414265 -0.064981826 0.2912951 0.34380755 0.31908444 0.44132656
0.18751499 0.61320883 -0.4117572 -0.11272836 0.032977544 0.65828466 0.22058035 0.3872174
-0.111086 -0.028848281 0.3838026 0.2337197 -0.22770114 -0.1923107 -0.4275999 -0.35479394
-0.040500212 -0.26095834 0.026158415 -0.41829807 -0.10601182 0.6168275 0.17652592 0.762384
0.13574393 0.34792945 -0.24880041 -0.35497004 0.32134643 -0.35461357 0.37758327 -0.35480094
-0.3547302 0.3262695 0.39999023 -0.17232902 0.5690993 0.13262737 0.42582884 0.33508983
-0.1243648 0.509184 0.18488935 -0.23712265 0.16355026 0.36927566 0.46145764 -0.013115563
-0.23855688 -0.18867245 -0.20813201 0.32995522 0.52411383 0.095313154 0.4135283 0.08496355
0.71676385 0.35569838 0.009892298 0.6922645 0.49612802 0.50409067 -0.28696766 -0.022720655
0.15125512 0.48360702 -0.13104615 -0.330013 -0.18895552 0.42752272 0.06813961 -0.30514285
0.19997708 -0.29445875 -0.23340149 0.26747146 0.62723935 -0.050377406 0.539014 0.1420759
-0.22825165 0.54019785 0.4570576 -0.45282245 0.29453495 -0.44523656 -0.46101016 -0.5588586
0.33121088 -0.32403034 0.665266 0.5172187 0.3020359 0.40017846 0.23419009 -0.12416927
-0.090052366 -0.14529125 0.6328205 0.2262661 0.4563898 0.3003562 0.16246378 0.018272726

l1.bias f4 [8]
00000000: df01 133f fb43 683f 8616 c63e c99f b53e
00000010: 4d7e ec3e 7a39 033f 81c8 5c3f 5a6e 1b3f
0.5742473 0.9072873 0.3868906 0.3547347 0.4619011 0.5125958 0.86243445 0.6071526

l2.weight f4 [8, 8]
00000000: 0c06 bdbd 68a7 41be caa6 b23b 1780 8ebe
00000010: edbf a53e 181f 78bd 9336 c0be 687a 813e
00000020: ec60 b53f 252d 5b3f 3787 98bf 76b3 33bf
00000030: 1b69 20bf 76a3 4c3f e69e 113f c153 01bf
00000040: 69fe 1bbf 5264 2b3e 7397 423e 1eee 843f
00000050: 4125 753f 7b8b a93f b3c6 7c3e 3c15 7abf
00000060: 1b2f a3bd 0288 bc3f f4a3 863f c4b2 65bf
00000070: ac00 9e3f 893c 35bf 9712 233e 7270 8f3f
00000080: 12d3 a63f 1b31 643f 30b6 82bf 9eb6 aebc
00000090: b009 0abf 220d 023e 5953 7e3f fbd9 f2be
000000a0: a8ed 31bd f347 aabe c499 8abe b0d9 353d
000000b0: 1808 96be 22ab fabd 8ce2 e2bd a854 e43d
000000c0: 332d 6f3f 4696 64bf 25f1 653e d4cc 873f
000000d0: 6193 be3e 5150 503f 4d2a 9e3f e7b8 b73e
000000e0: 43bb d4be c918 8c3f 4c7b 073f 7056 883e
000000f0: 8e6f f73e 2e8d 4a3f cc83 8abf 48be 6abf
-0.09229669 -0.18911517 0.0054520117 -0.278321 0.3237299 -0.06057653 -0.37541637 0.252887
1.4170203 0.8561576 -1.1916264 -0.7019571 -0.6266038 0.7993692 0.56883085 -0.50518423
-0.60935074 0.16737488 0.19003086 1.0385168 0.9575997 1.3245691 0.24685173 -0.9768865
-0.07967969 1.4729006 1.0518785 -0.897259 1.2343955 -0.70795494 0.1592506 1.120619
1.3033164 0.8913743 -1.0211849 -0.021327313 -0.5392103 0.12700322 0.9934593 -0.4743193
-0.043439537 -0.33258018 -0.2707044 0.044397056 -0.2930305 -0.12239672 -0.11078367 0.111489594
0.93428344 -0.892918 0.2245527 1.0609384 0.37221816 0.81372553 1.2356659 0.35883257
-0.4154912 1.0945064 0.5292251 0.26628447 0.48327297 0.79121673 -1.0821471 -0.91696596

l2.bias f4 [8]
00000000: 70e0 b9be 904c 403f d64b 49be 3711 333f
00000010: 9c35 143f d664 88be 9599 dd3b aadb a63e
-0.36304045 0.75116825 -0.19657835 0.6994814 0.578943 -0.26639432 0.006762693 0.32589465

l3.weight f4 [7, 8]
00000000: ab8b a73d d836 77bf e39f f73e 334d a1bf
00000010: 35c9 70bf 845c b73d 67a6 f73e 9010 1f3f
00000020: 9b01 ec3d e2b5 3bbf 2501 0b3f 2dd1 13be
00000030: 7c81 45bf c8f8 853d 4156 88bf 7e9a 263f
00000040: 8fb0 9d3d b088 f2be 557f cfbf 385f 603f
00000050: 0c2b e0be 9006 0c3d 98af 44bf d8c4 013e
00000060: 126c 9e3d 4805 543f 7964 c2bf a50d bfbe
00000070: 8c36 643f 3678 93be 8cae 22be f96a 0fbf
00000080: 233c 853e d690 41bf b3e5 86be c746 973e
00000090: 0cee 0fbc b0b5 da3d 1365 aa3e e9d7 a1bf
000000a0: 0df8 b0bc 9bfc 193f 0cd1 ecbc 17cb c0be
000000b0: 735d b43e 8668 7c3e 4ee3 c8bf ec87 093f
000000c0: 0e97 92bd f057 6e3e 4533 c73e 7267 97bf
000000d0: 71b6 2d3e 4b25 953e 21f6 183f f06f 39bf
0.081809364 -0.9656806 0.4836417 -1.2601684 -0.9405702 0.08953193 0.48369142 0.6213465
0.11523744 -0.73324406 0.5429862 -0.14435263 -0.771507 0.06541592 -1.0651323 0.65079486
0.076996915 -0.4736991 -1.6210734 0.8764529 -0.43782842 0.034185946 -0.76830435 0.12672746
0.077354565 0.8282056 -1.5186912 -0.37315097 0.8914573 -0.2880265 -0.15886897 -0.560226
0.26022443 -0.7561163 -0.26347122 0.29546186 -0.008784782 0.106791854 0.33280239 -1.2644016
-0.021602655 0.6015107 -0.028908275 -0.37654945 0.35227546 0.24649248 -1.5694368 0.53723025
-0.07157718 0.23275733 0.38906303 -1.1828444 0.16964127 0.29130015 0.5975056 -0.7243643

l3.bias f4 [7]
00000000: aca6 ab3b 1198 9bbe 93f8 e83e afd1 713e
00000010: 4c35 46be 6d6a 26be ad2b 0b3e
0.0052383747 -0.30389455 0.45502147 0.23615144 -0.19356269 -0.16251536 0.1359088
